snakeai/savedModel.npy (npy, 8320 bytes, 1 tensors)

array f8 [2, 2, 2, 2, 2, 2, 2, 2, 4]
000000 73 34 bf 22 b8 c2 40 3f 00 00 00 00 00 00 00 00
       0.0005114935970539483 0.0
000010 86 ff 83 89 ff 94 88 3f 00 00 00 00 00 00 00 00
       0.012002941497939689 0.0
000020 00 00 00 00 00 00 00 00 00 00 00 00 00 00 00 00
       0.0 0.0
000030 00 00 00 00 00 00 00 00 00 00 00 00 00 00 00 00
       0.0 0.0
000040 00 00 00 00 00 00 00 00 00 00 00 00 00 00 00 00
       0.0 0.0
000050 00 00 00 00 00 00 00 00 00 00 00 00 00 00 00 00
       0.0 0.0
000060 00 00 00 00 00 00 00 00 00 00 00 00 00 00 00 00
       0.0 0.0
000070 00 00 00 00 00 00 00 00 00 00 00 00 00 00 00 00
       0.0 0.0
000080 00 00 00 00 00 00 00 00 00 00 00 00 00 00 00 00
       0.0 0.0
000090 00 00 00 00 00 00 00 00 00 00 00 00 00 00 00 00
       0.0 0.0
0000a0 00 00 00 00 00 00 00 00 00 00 00 00 00 00 00 00
       0.0 0.0
0000b0 00 00 00 00 00 00 00 00 00 00 00 00 00 00 00 00
       0.0 0.0
0000c0 00 00 00 00 00 00 00 00 00 00 00 00 00 00 00 00
       0.0 0.0
0000d0 00 00 00 00 00 00 00 00 00 00 00 00 00 00 00 00
       0.0 0.0
0000e0 00 00 00 00 00 00 00 00 00 00 00 00 00 00 00 00
       0.0 0.0
0000f0 00 00 00 00 00 00 00 00 00 00 00 00 00 00 00 00
       0.0 0.0
000100 00 00 00 00 00 00 00 00 00 00 00 00 00 00 00 00
       0.0 0.0
000110 00 00 00 00 00 00 00 00 00 00 00 00 00 00 00 00
       0.0 0.0
000120 00 00 00 00 00 00 00 00 00 00 00 00 00 00 00 00
       0.0 0.0
000130 00 00 00 00 00 00 00 00 00 00 00 00 00 00 00 00
       0.0 0.0
000140 00 00 00 00 00 00 00 00 00 00 00 00 00 00 00 00
       0.0 0.0
000150 00 00 00 00 00 00 00 00 00 00 00 00 00 00 00 00
       0.0 0.0
000160 00 00 00 00 00 00 00 00 00 00 00 00 00 00 00 00
       0.0 0.0
000170 00 00 00 00 00 00 00 00 00 00 00 00 00 00 00 00
       0.0 0.0
000180 00 00 00 00 00 00 00 00 00 00 00 00 00 00 00 00
       0.0 0.0
000190 00 00 00 00 00 00 00 00 00 00 00 00 00 00 00 00
       0.0 0.0
0001a0 00 00 00 00 00 00 00 00 00 00 00 00 00 00 00 00
       0.0 0.0
0001b0 00 00 00 00 00 00 00 00 00 00 00 00 00 00 00 00
       0.0 0.0
0001c0 00 00 00 00 00 00 00 00 00 00 00 00 00 00 00 00
       0.0 0.0
0001d0 00 00 00 00 00 00 00 00 00 00 00 00 00 00 00 00
       0.0 0.0
0001e0 00 00 00 00 00 00 00 00 00 00 00 00 00 00 00 00
       0.0 0.0
0001f0 00 00 00 00 00 00 00 00 00 00 00 00 00 00 00 00
       0.0 0.0
000200 75 c1 1f e5 6e 5f a2 bf 6b 4c c1 ac 5c 2f aa 3f
       -0.03588434740948091 0.051142593467965757
000210 5c 8a 8d f2 08 f1 92 bf 8d 54 ba bb b9 fb 07 40
       -0.018497600368741693 2.9979128519285667
000220 0b 2e dc 50 3a 4d 92 bf 87 26 1e e6 45 bb 95 bf
       -0.017872725663478344 -0.02122220246341169
000230 78 5f bd 2f 9d c5 95 bf 62 1d 7c 4b 66 8a da 3f
       -0.02126165012245404 0.4146972405582884
000240 72 ca 39 bb 6a 4a ac bf 2a 71 bf 5d f9 64 aa bf
       -0.05525525603743099 -0.05155162114508223
000250 b7 63 11 8a ab ba bc bf 5b 2d f4 7a f4 fe fb 3f
       -0.11222335930632608 1.749744873321865
000260 2f bb 06 77 4e 93 5d bf fc a9 f1 d2 4d 62 50 bf
       -0.0018051401385538836 -0.001
000270 3d 68 76 dd 5b 91 68 bf 8d 67 e8 83 16 5c 7f 3f
       -0.0029990000000000004 0.007656181288007502
000280 1e f3 c0 bb a3 0e c6 bf bc d9 0a f7 3f 88 d2 bf
       -0.17232176463758092 -0.2895660316966333
000290 b8 c9 c1 db e0 2f c9 bf 76 22 a5 ae 69 f4 0a 40
       -0.19677363138505455 3.369342197813519
0002a0 7d b4 57 95 dc c3 67 bf fc a9 f1 d2 4d 62 60 bf
       -0.0029010113018928516 -0.002
0002b0 74 17 1e 2f b0 f1 67 bf 40 96 c1 f8 13 d9 63 bf
       -0.0029228631109984807 -0.002422846801027473
0002c0 e8 86 ae 22 a5 72 8c bf 90 29 ff 17 57 6e 9c bf
       -0.013890543099310773 -0.027764664497036018
0002d0 d7 cc 3c cb a0 59 9e bf 06 3e e1 87 04 26 d8 3f
       -0.02963877907241116 0.3773204161597906
0002e0 1d 3b e4 b0 9d 14 4f bf fc a9 f1 d2 4d 62 60 bf
       -0.0009485025382519361 -0.002
0002f0 00 00 00 00 00 00 00 00 00 00 00 00 00 00 00 00
       0.0 0.0
000300 7c 16 33 c0 83 70 ab bf 6a 9a 4c ab b1 05 a8 bf
       -0.053592793666706634 -0.046918441925574
000310 9a 21 f0 70 83 68 a4 bf f6 2f 4f 4f de cb f6 3f
       -0.039859874283197885 1.4247725580235033
000320 fc a9 f1 d2 4d 62 60 bf 09 3f 27 73 e2 61 60 bf
       -0.002 -0.0019998
000330 65 be 5d 2d b9 eb 66 bf 8f 22 6d 94 59 7f 7e 3f
       -0.0027979485266127918 0.007445669098907217
000340 fe 48 51 53 63 48 85 bf c2 27 a7 c0 af 3f 92 bf
       -0.010391975383900572 -0.01782106984482091
000350 8f 0f 19 52 ea a6 9b bf ed 14 60 bc 87 ac c7 3f
       -0.027003918896539466 0.18495270441068304
000360 00 00 00 00 00 00 00 00 00 00 00 00 00 00 00 00
       0.0 0.0
000370 00 00 00 00 00 00 00 00 00 00 00 00 00 00 00 00
       0.0 0.0
000380 43 bc 9f 5a 1a 62 95 bf de 2e b3 20 ac 57 97 bf
       -0.020882045537231397 -0.02279538106522138
000390 73 4e 4c a0 79 8a 95 bf 5c dc 38 cf a2 fd db 3f
       -0.021036053093736528 0.4373557113316957
0003a0 00 00 00 00 00 00 00 00 00 00 00 00 00 00 00 00
       0.0 0.0
0003b0 00 00 00 00 00 00 00 00 00 00 00 00 00 00 00 00
       0.0 0.0
0003c0 7f a3 45 e8 0f 57 78 bf 3e 93 fd f3 34 60 70 bf
       -0.005942403924884653 -0.003998
0003d0 32 2d af 25 16 42 70 bf 20 e3 5b 70 af 0d 85 3f
       -0.003969275009647876 0.010280008903906401
0003e0 00 00 00 00 00 00 00 00 00 00 00 00 00 00 00 00
       0.0 0.0
0003f0 00 00 00 00 00 00 00 00 00 00 00 00 00 00 00 00
       0.0 0.0
000400 27 a0 fc 96 9b 75 93 bf 95 b0 48 db 76 2e 9e bf
       -0.01900332554865272 -0.029474122175245105
000410 b0 d1 7d 99 aa e8 ff 3f 00 00 00 00 00 00 00 00
       1.9943033214341135 0.0
000420 f0 45 03 1f ee 61 a0 bf 61 82 04 24 1d 2e 95 bf
       -0.031997147832622974 -0.02068372280439446
000430 ed e7 58 bd d2 ee e9 3f 00 00 00 00 00 00 00 00
       0.8104032228650319 0.0
000440 56 26 7e 21 56 87 90 bf dd 1d 97 39 c2 ca 93 bf
       -0.01614126758025799 -0.019328150525124477
000450 92 9f 9d 58 e7 5f c1 3f f1 51 bd 28 f7 de 72 bf
       0.13573924853266967 -0.0046071676877841175
000460 2b 40 14 f7 94 3c 93 bf d8 e3 e7 ff ae 23 92 bf
       -0.0187857890896909 -0.017714247102023822
000470 8e 4b e5 4d 82 38 92 bf b4 fa 29 13 9b 8a 93 bf
       -0.017793689731955768 -0.019083426518131844
000480 5b f7 e0 8a 8a 71 a4 bf 5f 76 5a 16 62 49 b5 bf
       -0.03992875047013796 -0.08315098806129971
000490 5f 6c 26 70 0e e4 f3 3f 00 00 00 00 00 00 00 00
       1.243177831732076 0.0
0004a0 87 ca 16 0b 6c cd 7c bf 4e 03 25 d4 47 dc 82 bf
       -0.007031843227582108 -0.009209214364661069
0004b0 75 74 46 5f 5e 64 c0 3f 00 00 00 00 00 00 00 00
       0.1280630078516968 0.0
0004c0 1c 36 a6 04 41 68 96 bf 9d f5 87 fc 97 76 97 bf
       -0.021882072361725333 -0.022913336551928166
0004d0 92 d4 fc 18 c5 40 99 bf 02 86 43 02 45 33 97 bf
       -0.024661140108226016 -0.02265651537243763
0004e0 d4 cd 68 27 54 83 60 bf e6 d3 76 b4 01 73 60 bf
       -0.002015747416658201 -0.0020079644488881663
0004f0 fc a9 f1 d2 4d 62 60 bf fc a9 f1 d2 4d 62 60 bf
       -0.002 -0.002
000500 08 af a2 3d 1c 71 c9 bf 9d 36 2e c3 b0 79 bc bf
       -0.1987643528894909 -0.11123184933804926
000510 f0 a6 9c 89 45 8b 04 40 00 00 00 00 00 00 00 00
       2.568003726094382 0.0
000520 af 8c 97 61 01 a6 8e bf aa f7 9d 4a ac f2 82 bf
       -0.014965067663928215 -0.009251924540645568
000530 da 38 c7 d4 3b 67 d3 3f 00 00 00 00 00 00 00 00
       0.3031758859550685 0.0
000540 1a 5f 3b 4c 17 ed a4 bf f4 27 5e f0 a7 41 a4 bf
       -0.040871360831884654 -0.039563415614864456
000550 89 79 9d c6 5e 49 a4 bf 2a 41 bd 63 66 78 a4 bf
       -0.03962227034093064 -0.03998107879181341
000560 6f c5 43 e9 39 67 60 bf fe 55 1c 28 1d d2 4f bf
       -0.002002347095292726 -0.0009710924498189109
000570 fc a9 f1 d2 4d 62 60 bf 00 00 00 00 00 00 00 00
       -0.002 0.0
000580 29 25 51 5a 3a 6e 93 bf 60 33 6f 07 f9 52 90 bf
       -0.018975173723707748 -0.015941515997656253
000590 f3 a6 92 0b 0d 81 cc 3f 00 00 00 00 00 00 00 00
       0.22268832268792202 0.0
0005a0 fc a9 f1 d2 4d 62 60 bf dc cb 7d 16 e2 50 60 bf
       -0.002 -0.0019916930941063903
0005b0 96 77 3d a6 e4 4a 81 3f 00 00 00 00 00 00 00 00
       0.008443628619428083 0.0
0005c0 28 21 8f e7 70 be 68 bf fc a9 f1 d2 4d 62 60 bf
       -0.003020496861129502 -0.002
0005d0 fc a9 f1 d2 4d 62 60 bf b3 df c6 2e 80 26 60 bf
       -0.002 -0.0019714835709372046
0005e0 00 00 00 00 00 00 00 00 00 00 00 00 00 00 00 00
       0.0 0.0
0005f0 00 00 00 00 00 00 00 00 00 00 00 00 00 00 00 00
       0.0 0.0
000600 d1 08 36 64 91 25 af bf 57 df ef 50 98 fe a9 bf
       -0.06083349560050667 -0.050770530586247524
000610 f6 24 94 25 91 94 fc 3f 00 00 00 00 00 00 00 00
       1.7862712352674044 0.0
000620 86 6b 6f f9 02 c4 a6 bf 24 ec 1e 27 b7 b4 a9 bf
       -0.044464199970852866 -0.05020687439488139
000630 5b 80 3c 33 5c f7 e8 3f fc a9 f1 d2 4d 62 50 bf
       0.7801953316411628 -0.001
000640 f4 78 a5 95 86 cf a5 bf 29 ee 7e 3b 19 cc ad bf
       -0.04259892060029982 -0.058197773468659904
000650 9a 68 23 9f 60 26 95 bf 62 96 1d 3a 7e 4b e7 3f
       -0.020654210770637428 0.7279654631681292
000660 6b 0e 45 9a cd 5b 98 bf c3 66 d4 c3 cc ee 98 bf
       -0.023787701168897984 -0.024348449184890663
000670 67 5a 8a c1 c5 6e 9e bf d6 aa 87 1d 7c 44 98 bf
       -0.029719438493510355 -0.023698748876919883
000680 a8 a3 f2 b0 2d 06 bb bf 3b 00 48 f7 9c 07 c8 bf
       -0.10556302614226232 -0.18773233484535176
000690 6c 27 79 dc 7b bb c1 3f 0d 28 85 85 31 56 f1 3f
       0.13853405251785078 1.083543321192795
0006a0 f5 4d ce 99 30 c1 87 bf 4e 47 6a 8f 59 63 94 bf
       -0.011598949140341633 -0.01991023958050358
0006b0 9d 0f df 5b 59 53 b4 3f 00 00 00 00 00 00 00 00
       0.07939680569603387 0.0
0006c0 31 48 c6 53 aa 26 83 bf e3 b1 5c a3 77 5b 90 bf
       -0.009351092034908333 -0.015973920198279045
0006d0 5c 7f 80 01 87 d0 93 bf d4 21 32 3f d6 d8 b8 3f
       -0.01935015627543578 0.0970586685454074
0006e0 2c fc 01 09 b4 27 50 bf fc a9 f1 d2 4d 62 60 bf
       -0.0009860284954184102 -0.002
0006f0 fc a9 f1 d2 4d 62 60 bf ee 95 b0 08 93 82 60 bf
       -0.002 -0.0020153877026298705
000700 8c 83 39 2d 99 5d d4 bf 7c cc 9f fe dd 21 c8 bf
       -0.3182127896926026 -0.18853354389975496
000710 c2 23 e9 7d 50 4f fc 3f 00 00 00 00 00 00 00 00
       1.7693638723742287 0.0
000720 b4 68 a7 5a 3a a3 7c bf 28 fd 5e 18 55 f3 71 bf
       -0.0069916037996 -0.004382450488207547
000730 c6 a0 95 4f 5f 33 b2 3f 00 00 00 00 00 00 00 00
       0.0710963792131479 0.0
000740 93 ca 91 4a 43 30 80 bf c3 fa 4d ad 20 5e 8a bf
       -0.007904554093533 -0.012874846733891393
000750 18 58 44 e1 c1 f8 84 bf 5d 9e 1d d4 9f 26 b0 3f
       -0.010240091979124386 0.06308936050992871
000760 00 00 00 00 00 00 00 00 00 00 00 00 00 00 00 00
       0.0 0.0
000770 00 00 00 00 00 00 00 00 00 00 00 00 00 00 00 00
       0.0 0.0
000780 90 27 08 67 1d b0 b0 bf c7 3e 8b 3e d7 5a b0 bf
       -0.0651872993986713 -0.06388612057639441
000790 4c 07 5c 67 a1 f9 d0 3f 00 00 00 00 00 00 00 00
       0.2652362355585083 0.0
0007a0 fc a9 f1 d2 4d 62 60 bf 3e 93 fd f3 34 60 70 bf
       -0.002 -0.003998
0007b0 85 3d b5 20 70 fc 7d 3f 00 00 00 00 00 00 00 00
       0.007320821761211409 0.0
0007c0 fc a9 f1 d2 4d 62 60 bf fc a9 f1 d2 4d 62 60 bf
       -0.002 -0.002
0007d0 76 d7 d9 90 7f 66 50 bf a3 c6 fb b9 25 79 51 3f
       -0.0010009999999999997 0.0010664814398605802
0007e0 00 00 00 00 00 00 00 00 00 00 00 00 00 00 00 00
       0.0 0.0
0007f0 00 00 00 00 00 00 00 00 00 00 00 00 00 00 00 00
       0.0 0.0
